ann_model.pkl (torch, 333093 bytes, 5 tensors)

0.weight f4 [861, 61]
000000 3b 02 63 bd cc 64 c5 3d b7 54 fd bd 0f f6 a1 3d
       -0.05542205 0.09638366 -0.12369674 0.0790826
000010 d8 fe 4a 3b d0 25 32 3d 52 42 cb bb 8c 0c e9 bd
       0.0030974653 0.043493092 -0.0062029744 -0.11379346
000020 ae c0 02 3e b0 e6 5f bd fa 12 b3 3d a6 9d 3d 3d
       0.12768814 -0.05466336 0.08743854 0.046292923
000030 e0 b9 03 bd 4e db f7 3d 2a 05 b9 3d 8d d3 93 bd
       -0.032159686 0.12102376 0.09034188 -0.072180845
000040 2e 07 74 3d 01 72 c7 bc df 85 b2 3d b7 67 7a bd
       0.05957716 -0.024346353 0.0871694 -0.061134066
000050 0e 68 44 3d a8 7e b8 3d fb a8 5e bd 6b fc a5 3d
       0.047950797 0.09008533 -0.05436037 0.081047855
000060 a0 a9 c5 3d 5b 5c 81 3b d5 5a f6 3d c1 42 12 3d
       0.09651494 0.003947777 0.120290436 0.035708193
000070 fe 59 29 3d 50 ba a2 bd be ff 70 3d ba f5 89 3d
       0.04134559 -0.079456925 0.058837645 0.06736322
000080 af 4d 27 bc 40 34 d8 3d 67 e1 9b 3d 7d 5f 2b 3d
       -0.010211392 0.10556841 0.076113515 0.04183911
000090 c3 f0 d1 3d 8f 44 c2 bd 90 8b c5 3d 88 82 fa bd
       0.10251 -0.09485733 0.0964576 -0.12231928
0000a0 3e 68 00 be 1b fb 6f bc 23 37 05 3c 84 9e a7 3d
       -0.12539765 -0.014647271 0.008130821 0.08184531
0000b0 5f ae d7 3d 63 f8 6f bd 05 32 1e 3d 35 df 9a 3d
       0.105313055 -0.05858649 0.03862192 0.075621046
0000c0 98 9f e7 3d d4 b3 8a 3b 54 f4 98 3d b3 cc 00 3e
       0.11309737 0.004232863 0.07468477 0.12578087
0000d0 3a 70 21 3d 91 65 c5 3c 26 16 7e 3d 02 f1 0b 3d
       0.03941367 0.024096282 0.06203284 0.03416539
0000e0 63 9b 52 3d e3 ef fb 3d 66 3e 2f bc 96 e0 a5 bb
       0.05141772 0.12301614 -0.010696029 -0.005062173
0000f0 11 a2 21 bd 05 bf 1c bd 9d 21 f9 bc 0e ff 1f 3d
       -0.0394612 -0.038268108 -0.030411536 0.0390616
000100 eb b0 77 bd f6 a2 61 bd 6e a3 d8 bd 2a 23 53 bb
       -0.060471456 -0.055087052 -0.10578047 -0.0032217004
000110 9b af 2f bd cb b6 8f 3c d0 23 76 3a c2 20 6e bd
       -0.04289208 0.017543217 0.0009389492 -0.05813671
000120 28 0a 81 bc fb ea cf bc 2b b3 f4 3d c9 65 e2 bc
       -0.015751913 -0.025380602 0.11948236 -0.027636426
000130 5c 9d a5 bd e9 41 bd 3d 32 c4 91 bc 02 fd a9 bd
       -0.080866545 0.09241087 -0.017793749 -0.083002105
000140 ad d9 9d 3d f8 cd 99 bd ce 74 a3 3d aa a2 1f bd
       0.07707534 -0.075099885 0.07981263 -0.038973488
000150 74 df 3b 39 a1 31 7b bc 07 b8 7a bd 96 73 5a bd
       0.00017916952 -0.015331657 -0.06121066 -0.053332888
000160 d3 e1 5a bd 8b ee 0b 3d f4 d8 3a bd 7e 0b 9a 3d
       -0.05343802 0.03416304 -0.04561706 0.07521723
000170 b0 a2 53 bd 12 a2 5e bd 3c 4d 55 3c 2a 9b 1a bd
       -0.051668823 -0.05435378 0.013018902 -0.037745632
000180 ea 35 01 be 39 c2 79 3d 4e e3 2b 3d a8 70 51 3c
       -0.12618223 0.06097624 0.04196482 0.012783207
000190 a3 c7 e3 3d 58 ac 1b bd 98 61 df 3d c0 59 d8 bc
       0.11122062 -0.038006157 0.109072864 -0.026409984
0001a0 30 76 db bd ee 67 f9 3d b9 cd c1 3b ff cd 29 3c
       -0.10715902 0.12178026 0.0059144166 0.010364055
0001b0 cd d4 1c 3d 48 e9 9a 3c c0 00 79 3d a0 34 a9 3c
       0.03828888 0.018910065 0.06079173 0.020654976
0001c0 a8 61 9d 3d b8 11 4a 3c 8b e0 db 3d ac 38 dc bd
       0.07684642 0.012333326 0.107361875 -0.10752997
0001d0 90 06 17 bd 66 c1 db 3d 30 ec f2 bc 95 53 eb 3d
       -0.036871493 0.10730247 -0.029653639 0.114905514
0001e0 ae 56 1f bd 60 f9 c8 3d 92 0f 32 3d 2c 15 c6 bd
       -0.038901024 0.098131895 0.04347188 -0.09672007
0001f0 f9 29 92 bd 13 f3 cf 3d f5 15 3e bd 15 01 4a 3d
       -0.07136912 0.101537846 -0.04640766 0.04931744
000200 52 79 2b bd 6c 4f dc bd 62 76 de 3c 13 e0 98 bd
       -0.041863747 -0.10757336 0.027156059 -0.07464614
000210 cd ed 44 bc 2f d0 7e bc 92 ee b0 bc 98 37 85 bd
       -0.012019587 -0.0155525645 -0.021598134 -0.06504744
000220 e7 92 00 be da fa f8 3d d5 64 c6 bd 7d aa 93 bc
       -0.12556039 0.12157221 -0.09687201 -0.018025631
000230 90 7a 5d bd a7 bd 37 bd ca ba c5 ba e1 6b f1 bc
       -0.054071963 -0.0448586 -0.0015085575 -0.029470386
000240 f7 27 a4 3d 46 5b 5a bd 9e 3b c9 3d c2 13 86 3b
       0.08015435 -0.0533097 0.09825824 0.004091711
000250 b8 4f 9f bd 73 ea 76 bc d3 66 53 bd 75 fd fb bd
       -0.07778877 -0.0150705455 -0.051611733 -0.123042025
000260 a0 85 01 be b1 61 a1 bd fc 58 cc 3d 36 26 c8 3d
       -0.1264863 -0.07879961 0.0997791 0.09772913
000270 8d 14 88 bc 3f 25 c7 3d 71 96 30 3d ce 82 f5 3d
       -0.016611362 0.09723901 0.043112222 0.1198784
000280 66 d1 da bd 9d ed ce 3d 38 93 d0 3b 04 7b b9 bd
       -0.10684471 0.10103915 0.006365206 -0.090566665
000290 dc 6f 35 3d 6c e1 b6 bd 2e e9 62 bd 70 6f 44 bd
       0.04429613 -0.089297146 -0.05539816 -0.047957838
0002a0 de 96 37 3d 0a f5 e0 bd d2 9f a7 3d 7e 6f e6 ba
       0.044821613 -0.109842375 0.0818478 -0.0017580835
0002b0 07 b9 82 3d 11 c3 a0 bd 3c fe ca bc cd eb 7c 3d
       0.063829474 -0.07849706 -0.024779432 0.061748315
0002c0 b9 41 c9 3c 8b b4 ef 3d 18 55 22 bd 5a 34 b2 bd
       0.024567472 0.11704358 -0.039631933 -0.087013915
0002d0 55 71 3c 3b d3 d0 01 be de 46 8d bd 6d be 01 be
       0.0028754075 -0.12677316 -0.068982825 -0.12670298
0002e0 cb 72 de 3d 3e 6c 43 3c 35 ac 9a bd 07 c1 c9 3d
       0.10861739 0.011927662 -0.07552377 0.0985127
0002f0 83 3a 06 bd d9 13 d2 bd 83 02 15 3d d1 02 8e 3d
       -0.032770645 -0.10257692 0.03637935 0.06934131
000300 8f 4c 04 3e 66 b5 91 3c 33 19 de 3d 55 78 ab bb
       0.1291983 0.017786693 0.1084465 -0.0052328506
000310 bd 34 14 3d 45 b5 02 3e dd 89 6e 3d 06 12 10 3d
       0.036183108 0.12764461 0.058236945 0.03517344
000320 67 3a 99 3d 5b f3 4f bb 64 1a ae bd 73 c1 ab bd
       0.074818425 -0.0031730745 -0.08501127 -0.08386507
000330 c9 14 a3 3d 04 8a 49 bc ca 24 f1 bd 79 63 bd 3d
       0.07962949 -0.012300972 -0.11774595 0.092474885
000340 7d 2e d9 bd 8b 76 7d bd 68 c4 00 3e 31 32 59 3c
       -0.1060457 -0.06188063 0.12574923 0.0132565955
000350 74 9f eb 3d ba 3b e0 3d 8d d8 ea bb 7c 22 3a bd
       0.11505023 0.10948892 -0.007166928 -0.045443043
000360 87 71 86 3d c9 bb 2e 3d 09 c4 bf 3d 98 93 0d 3d
       0.06564622 0.042659555 0.093635626 0.034564584
000370 ea 4d f8 3c 9c ce 8c bd af 92 b4 3d d4 bd cd 3d
       0.03031059 -0.06875345 0.0881704 0.100459725
000380 3a 5b 80 bd 39 90 85 bc e7 c4 b9 3c 09 96 af 3d
       -0.062674 -0.016304122 0.022676898 0.08573539
000390 a5 d1 d4 3d af a4 f8 bd 23 60 95 3d 20 46 09 bd
       0.10391549 -0.12140786 0.07293727 -0.033514142
0003a0 d3 57 49 3d bf 21 f7 bd 2c c5 58 bd f8 1e e4 3c
       0.04915602 -0.120669834 -0.052922413 0.027846798
0003b0 99 79 3c 3d 74 7d d7 3d bd 12 79 bd 2d b5 83 bd
       0.046014402 0.10521975 -0.060808886 -0.06431041
0003c0 41 fb 89 3c a5 58 b0 bd e1 1a 9f 3d 28 04 99 3d
       0.01684344 -0.086106576 0.077687986 0.07471496
0003d0 08 e0 2c bd 15 b8 94 3d e8 7f 9a 3d 0d 45 e0 bd
       -0.04220584 0.07261673 0.075439274 -0.109506704
0003e0 d9 79 99 bc da 9b b6 bd 83 ed 2b 3c 6b d4 c7 3d
       -0.01873486 -0.08916445 0.010493639 0.097573124
0003f0 0b 75 57 bd 4e 7a f6 bc fb 93 14 3c 6c 76 19 bd
       -0.052601855 -0.030087616 0.009068484 -0.03746645

0.bias f4 [861]
000000 1f 33 45 3d 26 5d b2 3d e9 51 37 bd 51 0c c2 bd
       0.048144456 0.08709173 -0.04475585 -0.094750054
000010 c1 d1 22 3d be 8e bb bd 34 7d 12 bd 67 a7 9e 3d
       0.03975082 -0.09158085 -0.035763934 0.07746773
000020 de e8 be 3d 70 0d 9e 3c 66 4e f1 3d 2c a3 0d 3b
       0.0932176 0.019293517 0.117825314 0.002161215
000030 bc 52 ad bd 37 50 df bd 6c 6a 7b bd cb 6c f1 bc
       -0.08463046 -0.10903972 -0.06138079 -0.029470822
000040 a9 98 ae 3c 96 32 c8 bd 12 db f4 3d 36 b8 85 3d
       0.021313028 -0.097752735 0.11955847 0.06529276
000050 f8 72 e1 3d 74 b6 cf bd b4 b6 58 3d da e7 61 bd
       0.11008257 -0.10142222 0.052908614 -0.05515275
000060 c6 bb c3 bc 04 54 d1 bd 37 33 ff bd 6f 32 4b 3d
       -0.023893248 -0.10221103 -0.1246094 0.049608644
000070 2a 77 f5 bd 3f 5a 87 bd e2 66 6b 3d 6b 73 f7 3d
       -0.11985619 -0.0660901 0.057471164 0.12082561
000080 84 42 7c bd c8 d1 bb 3d 43 ff d1 bd c4 de 39 3c
       -0.06158687 0.09170872 -0.102537654 0.011344615
000090 65 eb c3 bd 9e 9b e1 3d 8d 9b 25 bd fd f7 d4 bd
       -0.09566382 0.1101601 -0.040431548 -0.103988625
0000a0 ee f0 1b bd d9 4d f6 3c 3b d3 db bd f0 70 bd bc
       -0.038071565 0.030066418 -0.107336484 -0.023125142
0000b0 5d 27 2e 3c f8 1c 2e bc 05 49 b7 bd a3 d3 3f bd
       0.010629502 -0.010627024 -0.08949474 -0.046832692
0000c0 21 46 4a bd 27 de e4 bd 1e a1 25 bd 70 cd df 3d
       -0.049383286 -0.11175185 -0.040436856 0.10927856
0000d0 83 9d 8f bd ba 90 dd 3b a2 d2 f7 bc f1 65 83 3d
       -0.07012465 0.0067616375 -0.030251805 0.06415928
0000e0 cf c1 3c bc b1 22 82 bd cb b7 8d bd c7 ab e9 bc
       -0.011520817 -0.06354273 -0.06919821 -0.028524293
0000f0 ee 43 ab 3d 41 77 8f bd 32 b8 81 3d da ca 38 bc
       0.08362566 -0.07005168 0.063339606 -0.011278832
000100 b4 f3 9a 3d 3c d8 a2 3c 14 88 80 3d 34 2c a8 3d
       0.07566014 0.0198785 0.06275955 0.08211556
000110 de f8 94 bd 1c 93 f7 bd cf be c0 bc 0a c6 d5 bb
       -0.0727403 -0.12088606 -0.023528485 -0.0065238522
000120 38 20 02 3e dd d9 d0 bd b3 bb 40 bd cc 31 de bb
       0.12707603 -0.10197804 -0.047054004 -0.0067808386
000130 ff de bf 3d 3e 01 03 be 8a 5a 93 3c dd 4d b4 3d
       0.09368705 -0.12793443 0.017987508 0.08803914
000140 c7 fc dd 3d 58 93 f4 3d 73 5b 09 b9 44 61 e8 bb
       0.10839229 0.11942166 -0.00013099406 -0.007091673
000150 b0 3a 89 3d 83 47 78 3d 77 74 c0 bd ae 7e f8 bc
       0.06700647 0.060615074 -0.09397214 -0.030333843
000160 a5 b2 9b 3c d7 78 99 3c 32 00 87 3c f1 85 0d 3d
       0.019006083 0.018734379 0.016479585 0.034551565
000170 50 50 bd 3d 0b f3 e8 3d 9e fc bd bd 95 f0 5b 3d
       0.09243834 0.11374482 -0.092766985 0.053696234
000180 41 61 dd bc df c2 e4 bd 9b cc b1 bd 5d 41 9e bc
       -0.027023913 -0.11169981 -0.086816035 -0.019318277
000190 0b 35 db bd d3 0d 5f bd 45 44 42 bc 78 92 98 bd
       -0.107034765 -0.054456543 -0.011857097 -0.07449812
0001a0 59 86 92 bd 86 62 89 3d 7c 73 c4 3d dd 46 33 bd
       -0.07154531 0.06708245 0.095923394 -0.043768752
0001b0 c7 e5 b0 3d 8e af ca bd fe 0d 23 3d 72 25 b1 bd
       0.086375766 -0.09896766 0.039808266 -0.0864972
0001c0 e0 44 dc 3d d4 75 0c bd 56 0c 8f bd 6a 27 dd bd
       0.10755324 -0.034292057 -0.06984775 -0.10798533
0001d0 a9 75 f7 bd 56 8d f0 3d 8e bc 90 bd 28 77 6e bc
       -0.12082989 0.11745708 -0.07067214 -0.014554776
0001e0 bb f9 f4 bd e5 34 ed 3d e3 9b 88 3d 74 3c 91 3d
       -0.11961695 0.115823545 0.06670358 0.07091609
0001f0 87 be d6 bc 74 75 d9 3d 63 d5 4d 3d 51 23 24 3d
       -0.026213897 0.106181055 0.05025233 0.040072743
000200 a3 1d 1d bc 5e f8 c1 3d 59 47 12 bb 38 0b 7c bd
       -0.0095895855 0.094712004 -0.0022320359 -0.061534137
000210 ed 48 83 bd 0a 72 ae bd 7f e2 a3 3d 74 9f 95 3d
       -0.06410394 -0.08517845 0.08002185 0.07305804
000220 1d 44 f9 bd 24 ea b6 3d 56 68 20 3d a3 15 de 3d
       -0.12171195 0.089313775 0.039162003 0.108439706
000230 f4 55 e3 3d c9 0a 5f 3c 85 6c b2 bd b4 c2 75 bc
       0.11100379 0.013613411 -0.08712105 -0.015000034
000240 b2 f7 ff bd e1 9f 49 3c c8 71 75 bc 2c 2d f2 bd
       -0.12498416 0.0123061845 -0.014980741 -0.11825022
000250 42 b2 e0 bd 6e 6f 1b bc 72 db 1e bd a0 6a 01 3d
       -0.109715 -0.009487016 -0.038783498 0.031595826
000260 67 36 4b bd 32 7d fa 3c 60 47 85 3d 35 bc e3 bd
       -0.04961243 0.030577276 0.06507754 -0.11119882
000270 94 0a a8 3d ba 61 8b bc 5c 50 fe 3d 69 15 fe 3d
       0.082051426 -0.017014373 0.12417671 0.124064274
000280 5c 1e cc bd a9 14 be bd 2f 73 3d 3d 5b f7 cb bd
       -0.09966728 -0.09281284 0.046252426 -0.09959289
000290 4c 44 b0 bc fd ba 31 3c 8e 2d c4 bd 53 7e ef bd
       -0.021516941 0.010847804 -0.09579001 -0.11694016
0002a0 14 5f a5 bd f9 83 12 bd c0 30 5a bd 20 14 b0 3b
       -0.08074775 -0.03577039 -0.053269148 0.005373493
0002b0 1c bb 12 bd 67 16 90 bd b1 96 5e bc 80 19 90 3d
       -0.035822973 -0.07035523 -0.013585732 0.07036114
0002c0 19 b6 96 bd 13 7d 4a bd d1 14 d7 bd 6d b1 ac bb
       -0.07358951 -0.049435686 -0.10502017 -0.0052701742
0002d0 7f c8 ed 3d 9a 5c ae 3b 7f dd 71 bd db 87 f1 bc
       0.11610507 0.0053210976 -0.059049126 -0.029483726
0002e0 a8 60 21 bd 42 00 b6 3d ca c7 ae bd b4 19 9f bd
       -0.03939882 0.08886768 -0.085342005 -0.07768574
0002f0 50 4f 64 bd 2d 0c 8d 3c f4 84 96 bd 66 d1 dc bd
       -0.0557397 0.01721772 -0.073495775 -0.10782127
000300 f1 27 c3 3d be 34 9a bd ee 9b c4 bd fc fd b0 bd
       0.095291026 -0.07529591 -0.09600054 -0.08642194
000310 9f fe b9 bb 51 76 81 bd c1 bd 59 3d 29 3b f6 3b
       -0.005676105 -0.06321395 0.05315948 0.0075143767
000320 61 12 02 bd 61 b1 00 3e ce 9d ad bb 09 cf 91 3d
       -0.03175581 0.12567665 -0.005298353 0.07119567
000330 ff 96 e8 bd db 0b bd 3d 9c 56 44 3c 88 bc 28 bd
       -0.11356925 0.09230777 0.01198354 -0.041195422
000340 ba ba 13 bd 5e 18 fe bd 69 1a c8 3c fc 23 dd bd
       -0.03606675 -0.124069914 0.024426656 -0.10797879
000350 80 d2 29 3d 85 3b 1b bc 40 01 c7 3d 10 3b 28 bd
       0.041460514 -0.00947464 0.09717035 -0.04107195
000360 ad 71 87 3c d0 f8 28 bd 4c 58 48 3d 23 2d d3 bd
       0.016533697 -0.04125291 0.04891233 -0.103113435
000370 54 dd b1 3c 6e 3c b6 3d d6 b5 96 bb 6b b2 57 3d
       0.021711983 0.08898245 -0.0045993133 0.052660387
000380 60 d9 b7 bd d1 78 cd bc 5e 05 e7 bd 26 ea da bd
       -0.08977008 -0.025082024 -0.112803206 -0.106891915
000390 bd 85 90 3d 6f 96 b2 3d ff 90 ab 3d d3 90 ad 3d
       0.070567586 0.08720099 0.08377265 0.08474889
0003a0 f8 5b 3d bd c0 8e ff bd 04 61 3c bd fa 94 fa bc
       -0.046230286 -0.12478399 -0.04599096 -0.030588616
0003b0 88 39 ef 3d d2 a4 b1 bd 8b 7f c6 bd 79 3d ad bd
       0.11680895 -0.08674015 -0.09692296 -0.084589906
0003c0 f3 30 8e 3c c2 4a 3e bb 69 66 d3 bc a8 06 e9 bd
       0.017357325 -0.0029036258 -0.025805669 -0.11378223
0003d0 91 8c 08 bd 7c e9 a9 3b f7 a5 bf 3d 27 38 e7 3d
       -0.03333718 0.005185304 0.09357827 0.11290007
0003e0 82 91 85 bd a4 e3 fa bd 32 9c ab bd 49 c4 0e 3d
       -0.06521894 -0.1225045 -0.08379401 0.03485516
0003f0 ce 99 f2 3d 42 34 08 bd f4 ee bd bd d1 c4 75 bd
       0.11845742 -0.033252962 -0.09274092 -0.060002152

3.weight f4 [34, 861]
000000 ca 17 29 bc 33 fe 5e bc e1 78 97 3d a0 22 e9 3a
       -0.010320613 -0.0136104105 0.07396103 0.0017786808
000010 3d 82 d4 bb 5b 53 c6 3c 00 ac b9 3d 14 03 45 3d
       -0.006485252 0.024209669 0.090660095 0.04809864
000020 d3 2a 08 3e 08 80 12 3d 8e 43 10 3d f5 a9 c9 3d
       0.13297586 0.03576663 0.035220675 0.0984687
000030 38 ed b9 3c 13 61 be 3c 55 f7 1e 3c bf 52 58 3d
       0.022696123 0.023239648 0.009702523 0.052813288
000040 34 c4 6d 3d c0 b9 9f 3c 2a 2d 56 bc 0e f2 7e 3d
       0.058048442 0.019497752 -0.013072291 0.06224256
000050 2c 6e 16 3d eb 2b 03 bd 19 30 cd 3c 39 b9 1d 3d
       0.03672616 -0.032024305 0.025047349 0.03850672
000060 4c 05 a3 3a eb aa d8 3c 24 43 aa bc 6f 27 ef 3c
       0.0012437492 0.026448688 -0.020783968 0.029193608
000070 5f f3 42 3c 5d 15 0b 3e e7 ce 80 3b 2c bb 67 3b
       0.0118988445 0.13582368 0.0039309147 0.0035359366
000080 ce 7f db bb af e1 ff 3c de 1c 75 3c d7 3b 23 3c
       -0.006698585 0.031235544 0.014960496 0.009962997
000090 10 22 f0 3c 4b 67 a7 3a 27 7a a2 3c 10 6c 80 3d
       0.029313117 0.0012771873 0.019833637 0.06270611
0000a0 d0 43 cf bc 85 c1 08 3e e8 e8 53 3d f5 ea 96 3d
       -0.02530089 0.13355072 0.05173579 0.07369033
0000b0 46 5b 9a 3d fd 31 ac bb 7d 44 07 3e d6 f4 ff bc
       0.0753694 -0.0052549825 0.1320972 -0.031244677
0000c0 e7 15 94 3d 14 65 3d bb ea bb e0 3d a3 bc 01 3d
       0.0723074 -0.0028899359 0.10973342 0.03167404
0000d0 f1 dd 56 3d cb 3a 09 bd 17 b6 60 3d f6 01 06 3d
       0.052457754 -0.033503335 0.054861154 0.032716714
0000e0 35 7e c7 3d dd fe 95 3d 48 b2 ee 3d 74 84 c0 3d
       0.09740869 0.07324002 0.11655098 0.094002634
0000f0 d6 b2 13 3c 43 f5 95 3d 22 e6 0a 3e b8 d2 3e 3c
       0.009014806 0.073221706 0.13564351 0.011646919
000100 e8 5d e0 3d 73 69 2d 3d d5 a4 a8 3d 15 2c 48 bc
       0.10955411 0.042336892 0.08234564 -0.012217541
000110 06 91 50 3d 8f 52 23 3d 5f c9 0f 3d c5 36 ce 3b
       0.050919555 0.039873656 0.03510415 0.00629315
000120 4a 28 9b 3d a6 df 04 3e a9 df 3d 3d 55 93 42 3c
       0.07576044 0.1297594 0.046355877 0.011875947
000130 46 1a cb 3d 8b eb 13 3e ad a5 04 bd 84 d0 ff bb
       0.09917121 0.14445321 -0.032384563 -0.0078068394
000140 f8 9d fd 3d 5b f3 36 bc 7f 9b c0 3d 1f 72 02 3c
       0.12383646 -0.011166419 0.094046585 0.007961779
000150 02 ef 59 3c 12 57 9b 3d f9 f4 89 3d 76 cc b1 3c
       0.013301613 0.07584967 0.06736178 0.02170394
000160 f9 38 ed bc 02 7e ee 3d 68 1d 81 3c e5 6b 9c ba
       -0.02895783 0.11645128 0.015761092 -0.001193401
000170 af 6a 89 3d f9 a5 6f 3c de 24 9c 39 b6 fa 09 3c
       0.067098014 0.014626973 0.00029782107 0.008421591
000180 04 63 eb 3b 11 53 af 3c 85 b0 8f bc 06 4d a5 3d
       0.0071834344 0.021401914 -0.017540226 0.08071332
000190 04 6e 15 bc bc d7 00 3e 4e eb 67 3c 57 3e bc 3c
       -0.009120468 0.12582296 0.014155222 0.022978945
0001a0 cc 3c 52 3c fd 8d c8 3c fe e4 df 3b 01 5e a2 3d
       0.012831878 0.024481768 0.006832718 0.07928086
0001b0 0f 0c dd 3d 3e 09 15 3e c0 cb 71 bb 14 d9 9d 3d
       0.107933156 0.14554307 -0.0036895126 0.0770742
0001c0 b0 b8 46 bc c4 65 f3 3d 35 22 ac 3d 7f c9 d8 bc
       -0.012128994 0.11884645 0.08404962 -0.026463268
0001d0 b6 77 9d bc 0a 6b 3f 3b cd ee 71 bc 29 a2 8c bc
       -0.019222122 0.0029208087 -0.014766407 -0.017167168
0001e0 77 44 49 3d 90 cd d4 3c de 18 20 3b 5a ee 13 bc
       0.04913756 0.025976926 0.0024428884 -0.009028995
0001f0 f7 ad 04 bc a0 86 26 3b 52 d0 0c 3c 6b df b3 3d
       -0.008098117 0.0025409833 0.008594589 0.08782848
000200 44 59 01 bc 7a 4a 03 3d b6 f3 9e 3c 77 93 40 3d
       -0.007894818 0.03205345 0.01940332 0.047015633
000210 5e 6f ac 3d 27 4b a7 3d 59 9b 0b bc 74 16 bc 3d
       0.08419679 0.08168631 -0.0085209245 0.0918397
000220 d5 b2 09 bd db b7 24 3d a1 a7 fb 3d 0c 64 1a bc
       -0.033617813 0.0402144 0.12287832 -0.009423267
000230 a2 e3 fb 3d 39 51 66 3b c0 d7 bf bc d4 3a b5 bc
       0.12299277 0.0035143627 -0.023418307 -0.022122778
000240 a7 71 c5 3c 4e ee 3e 3e cc c3 36 bc 56 93 3e bc
       0.024102045 0.18645594 -0.01115508 -0.011631807
000250 41 ca 05 3d 44 63 f2 bb fb c1 e2 3c 0c 7f 81 3d
       0.032663587 -0.0073970873 0.027680388 0.063230604
000260 99 c0 55 3d 99 b9 d7 bc d3 af d0 3c c8 f3 ce 3d
       0.05218563 -0.026333617 0.025474465 0.10105091
000270 cb 84 0d bc 69 52 de 3b 86 20 4d 3d 63 fa cd bc
       -0.008637617 0.0067847264 0.050079845 -0.025143808
000280 81 48 24 3e 91 62 ae 3b a6 f9 90 3c 60 15 12 3e
       0.16043283 0.0053218086 0.017697167 0.14265966
000290 47 cc 06 bd 97 ee 67 3d 0c 36 44 3e 4b 61 34 3d
       -0.032909658 0.05662402 0.19161242 0.0440381
0002a0 09 74 86 3d 1c 2d 08 3d c8 58 99 3d e7 1b 1f 3d
       0.06565101 0.033246145 0.07487637 0.03884497
0002b0 8c 19 4a bc e4 00 ca 3d 8f 1e 9e 3c ea 33 f3 bc
       -0.012335192 0.09863451 0.01930168 -0.02968784
0002c0 be a3 61 3c bb 2a 60 3c 1c 8f f2 3d 77 48 56 3d
       0.013771949 0.013682063 0.11843702 0.0523152
0002d0 f2 74 d0 3c 25 27 29 3c 4c ca 38 bc 76 e2 53 3c
       0.025446389 0.010324274 -0.0112787 0.01293241
0002e0 d9 e5 bd 3d eb 1e 12 3e ff f3 a1 3d 87 2d 3f 3c
       0.092723556 0.14269607 0.07907867 0.011668569
0002f0 1a df ff 3d 86 f0 02 bc 6c 4d 86 3d 59 aa b1 bc
       0.12493725 -0.007991916 0.06557736 -0.021687673
000300 a6 a2 2d 3e e7 79 d4 3c c7 c7 cb 3d a5 8e d5 3c
       0.16956577 0.025937034 0.09950214 0.026068995
000310 78 4a 98 3d 9d fb 04 bc b4 04 89 3c 78 a1 93 bc
       0.07436079 -0.00811663 0.016725875 -0.01802133
000320 d2 ef 01 3d a9 53 70 bc cb 52 be 3d ce f7 31 3d
       0.03172285 -0.014668384 0.09293135 0.043449216
000330 d9 cb 9b 3d f1 f1 74 ba 84 9a e6 bb 1e 24 c0 3d
       0.0760724 -0.00093439134 -0.0070374627 0.09381889
000340 c0 2e 70 3c 5f c8 92 bb 1a 34 b7 bc c0 44 e3 bc
       0.014659584 -0.0044794525 -0.022363711 -0.027742743
000350 a9 d0 59 3b 45 a3 81 3d 31 d3 4d bc a1 4c 0e bb
       0.0033235943 0.06329969 -0.012562559 -0.0021713155
000360 cc 55 12 bd 51 12 bb 3a da a9 bd bb d8 99 02 3e
       -0.035726354 0.0014272426 -0.00578807 0.12753999
000370 45 88 35 bc b4 e7 11 3e 20 ad e0 3b 74 85 e0 bc
       -0.0110798525 0.14248544 0.0068565756 -0.027407385
000380 8c 16 60 3d 7e 09 33 3c e3 4b 95 3d b2 6c 0f 3d
       0.054709002 0.010927556 0.07289865 0.03501577
000390 7c 07 02 bb 99 50 2f 3c 16 a9 c5 3c b4 14 37 3c
       -0.0019840887 0.010700368 0.024128478 0.01117437
0003a0 0a 82 e7 bc bc 45 7f 3c 7f e4 ef 3b ac 1e cd 3c
       -0.02826025 0.015580591 0.00732094 0.02503904
0003b0 ba 03 ca 3c a3 c7 dd 3b 6e d3 29 3b 91 a4 82 bc
       0.02465998 0.0067681833 0.0025913375 -0.015947612
0003c0 b0 1f b1 bc 14 51 4d 3d f0 24 d0 3d 7c d5 c4 3d
       -0.021621555 0.05012615 0.10163295 0.096110314
0003d0 6b 5c ef bc e1 01 21 3d 39 01 0b 3e 48 5c 99 bb
       -0.029218873 0.039308432 0.13574685 -0.0046801902
0003e0 bb 2c a3 3d 6d cb eb bb f2 83 05 3d cb a6 6f bc
       0.07967516 -0.007195881 0.032596536 -0.014627169
0003f0 8e 83 94 3c b1 2f 2d 3d 97 56 69 bc c5 0d 17 3d
       0.018129136 0.04228181 -0.014241836 0.036878366

3.bias f4 [34]
000000 0f 64 f7 3c 5f 1c d8 bc b4 cc f7 bc 57 77 6e 3c
       0.030199079 -0.026380716 -0.030248977 0.01455482
000010 cb 0f c4 bc 5d 70 bb 3c fd 7b 13 bc 34 73 6f 3c
       -0.023933312 0.022880727 -0.009001729 0.014614869
000020 d7 7e 04 bd ff 72 4a bc 30 14 93 bb a9 e2 1f bc
       -0.032347526 -0.012356519 -0.0044884905 -0.00975863
000030 61 0e e0 3c e6 57 e4 3c 79 5a 12 bc 21 4d e2 3c
       0.027350606 0.027873944 -0.008932703 0.027624669
000040 1a 5a b6 3b 6b f2 ba bc 01 94 d3 bc b9 87 06 3c
       0.00556494 -0.022820672 -0.02582741 0.00821107
000050 4f 33 b2 bb 95 47 d0 3c e2 37 5d b9 f3 ae a9 bc
       -0.0054382454 0.025424758 -0.0002109702 -0.020713305
000060 20 94 dc 3c 71 69 8b 3c 63 54 d1 3c ce ff ae 3c
       0.0269261 0.017018052 0.025552934 0.021362212
000070 c7 84 7b bc 7b da a4 3c 5b c3 82 bc 68 00 6a bb
       -0.015351481 0.02012371 -0.015962293 -0.0035705809
000080 33 88 a5 bc b1 96 cb 3c
       -0.020206546 0.024852129

6.weight f4 [1, 34]
000000 78 44 64 3e 23 8e 73 3e 33 6c 13 bd 96 f5 9f 3d
       0.22291744 0.2378469 -0.03599186 0.07810514
000010 e0 84 ca 3e 81 c2 6e bc 33 b5 14 be 95 21 d8 3b
       0.395545 -0.0145727405 -0.14522247 0.0065958
000020 77 7b a2 3c 65 5d d5 bd 0a bf 88 bc be be 42 3e
       0.019834263 -0.10418204 -0.016692657 0.19018075
000030 19 54 ec bd 6c 9f 38 3e 18 fe 7b bd 62 7f f9 3d
       -0.11539478 0.18029565 -0.06152162 0.121824995
000040 77 fc ba 3e 63 74 1d 3e 1e c1 06 3e 28 ec d2 3d
       0.3652074 0.1537643 0.13159606 0.102989495
000050 e4 c0 e5 3c 43 79 3d 3e e6 24 ff 3d 11 06 2e 3e
       0.028046079 0.18503289 0.1245821 0.16994502
000060 c0 fe 5e 3e 3f 6c 1b 3e 2c 6b 25 3e 0b 59 a4 bd
       0.21776867 0.15178011 0.16154164 -0.08024796
000070 80 95 97 bd fe 4e 0b 3e 55 7d 0f 3e e5 c7 af 3d
       -0.07401562 0.13604352 0.14012654 0.08583049
000080 b3 c8 38 3e 1f da 8d 3d
       0.1804531 0.06926369
